{
   "name": "base15m",
   "layers": [
      {
         "class_name": "InputLayer",
         "config": {
            "batch_input_shape": [
               null,
               256,
               256,
               3
            ],
            "dtype": "float32",
            "sparse": false,
            "ragged": false,
            "name": "conv2d_20_input"
         }
      },
      {
         "class_name": "Conv2D",
         "config": {
            "name": "conv2d_20",
            "trainable": true,
            "batch_input_shape": [
               null,
               256,
               256,
               3
            ],
            "dtype": "float32",
            "filters": 32,
            "kernel_size": [
               3,
               3
            ],
            "strides": [
               1,
               1
            ],
            "padding": "same",
            "data_format": "channels_last",
            "dilation_rate": [
               1,
               1
            ],
            "groups": 1,
            "activation": "relu",
            "use_bias": true,
            "kernel_initializer": {
               "class_name": "GlorotUniform",
               "config": {
                  "seed": null
               }
            },
            "bias_initializer": {
               "class_name": "Zeros",
               "config": {}
            },
            "kernel_regularizer": null,
            "bias_regularizer": null,
            "activity_regularizer": null,
            "kernel_constraint": null,
            "bias_constraint": null
         }
      },
      {
         "class_name": "MaxPooling2D",
         "config": {
            "name": "max_pooling2d_6",
            "trainable": true,
            "dtype": "float32",
            "pool_size": [
               3,
               3
            ],
            "padding": "valid",
            "strides": [
               3,
               3
            ],
            "data_format": "channels_last"
         }
      },
      {
         "class_name": "Conv2D",
         "config": {
            "name": "conv2d_21",
            "trainable": true,
            "dtype": "float32",
            "filters": 64,
            "kernel_size": [
               3,
               3
            ],
            "strides": [
               1,
               1
            ],
            "padding": "same",
            "data_format": "channels_last",
            "dilation_rate": [
               1,
               1
            ],
            "groups": 1,
            "activation": "relu",
            "use_bias": true,
            "kernel_initializer": {
               "class_name": "GlorotUniform",
               "config": {
                  "seed": null
               }
            },
            "bias_initializer": {
               "class_name": "Zeros",
               "config": {}
            },
            "kernel_regularizer": null,
            "bias_regularizer": null,
            "activity_regularizer": null,
            "kernel_constraint": null,
            "bias_constraint": null
         }
      },
      {
         "class_name": "MaxPooling2D",
         "config": {
            "name": "max_pooling2d_7",
            "trainable": true,
            "dtype": "float32",
            "pool_size": [
               3,
               3
            ],
            "padding": "valid",
            "strides": [
               3,
               3
            ],
            "data_format": "channels_last"
         }
      },
      {
         "class_name": "Conv2D",
         "config": {
            "name": "conv2d_22",
            "trainable": true,
            "dtype": "float32",
            "filters": 128,
            "kernel_size": [
               3,
               3
            ],
            "strides": [
               1,
               1
            ],
            "padding": "same",
            "data_format": "channels_last",
            "dilation_rate": [
               1,
               1
            ],
            "groups": 1,
            "activation": "relu",
            "use_bias": true,
            "kernel_initializer": {
               "class_name": "GlorotUniform",
               "config": {
                  "seed": null
               }
            },
            "bias_initializer": {
               "class_name": "Zeros",
               "config": {}
            },
            "kernel_regularizer": null,
            "bias_regularizer": null,
            "activity_regularizer": null,
            "kernel_constraint": null,
            "bias_constraint": null
         }
      },
      {
         "class_name": "MaxPooling2D",
         "config": {
            "name": "max_pooling2d_8",
            "trainable": true,
            "dtype": "float32",
            "pool_size": [
               3,
               3
            ],
            "padding": "valid",
            "strides": [
               3,
               3
            ],
            "data_format": "channels_last"
         }
      },
      {
         "class_name": "Conv2D",
         "config": {
            "name": "conv2d_23",
            "trainable": true,
            "dtype": "float32",
            "filters": 256,
            "kernel_size": [
               3,
               3
            ],
            "strides": [
               1,
               1
            ],
            "padding": "same",
            "data_format": "channels_last",
            "dilation_rate": [
               1,
               1
            ],
            "groups": 1,
            "activation": "relu",
            "use_bias": true,
            "kernel_initializer": {
               "class_name": "GlorotUniform",
               "config": {
                  "seed": null
               }
            },
            "bias_initializer": {
               "class_name": "Zeros",
               "config": {}
            },
            "kernel_regularizer": null,
            "bias_regularizer": null,
            "activity_regularizer": null,
            "kernel_constraint": null,
            "bias_constraint": null
         }
      },
      {
         "class_name": "MaxPooling2D",
         "config": {
            "name": "max_pooling2d_9",
            "trainable": true,
            "dtype": "float32",
            "pool_size": [
               3,
               3
            ],
            "padding": "valid",
            "strides": [
               3,
               3
            ],
            "data_format": "channels_last"
         }
      },
      {
         "class_name": "Conv2D",
         "config": {
            "name": "conv2d_24",
            "trainable": true,
            "dtype": "float32",
            "filters": 512,
            "kernel_size": [
               3,
               3
            ],
            "strides": [
               1,
               1
            ],
            "padding": "same",
            "data_format": "channels_last",
            "dilation_rate": [
               1,
               1
            ],
            "groups": 1,
            "activation": "relu",
            "use_bias": true,
            "kernel_initializer": {
               "class_name": "GlorotUniform",
               "config": {
                  "seed": null
               }
            },
            "bias_initializer": {
               "class_name": "Zeros",
               "config": {}
            },
            "kernel_regularizer": null,
            "bias_regularizer": null,
            "activity_regularizer": null,
            "kernel_constraint": null,
            "bias_constraint": null
         }
      },
      {
         "class_name": "Flatten",
         "config": {
            "name": "flatten_2",
            "trainable": true,
            "dtype": "float32",
            "data_format": "channels_last"
         }
      },
      {
         "class_name": "Dense",
         "config": {
            "name": "dense_4",
            "trainable": true,
            "dtype": "float32",
            "units": 2304,
            "activation": "relu",
            "use_bias": true,
            "kernel_initializer": {
               "class_name": "GlorotUniform",
               "config": {
                  "seed": null
               }
            },
            "bias_initializer": {
               "class_name": "Zeros",
               "config": {}
            },
            "kernel_regularizer": null,
            "bias_regularizer": null,
            "activity_regularizer": null,
            "kernel_constraint": null,
            "bias_constraint": null
         }
      },
      {
         "class_name": "Dropout",
         "config": {
            "name": "dropout_2",
            "trainable": true,
            "dtype": "float32",
            "rate": 0.5,
            "noise_shape": null,
            "seed": null
         }
      },
      {
         "class_name": "Dense",
         "config": {
            "name": "dense_5",
            "trainable": true,
            "dtype": "float32",
            "units": 1152,
            "activation": "relu",
            "use_bias": true,
            "kernel_initializer": {
               "class_name": "GlorotUniform",
               "config": {
                  "seed": null
               }
            },
            "bias_initializer": {
               "class_name": "Zeros",
               "config": {}
            },
            "kernel_regularizer": null,
            "bias_regularizer": null,
            "activity_regularizer": null,
            "kernel_constraint": null,
            "bias_constraint": null
         }
      },
      {
         "class_name": "Dropout",
         "config": {
            "name": "dropout_3",
            "trainable": true,
            "dtype": "float32",
            "rate": 0.5,
            "noise_shape": null,
            "seed": null
         }
      },
      {
         "class_name": "Dense",
         "config": {
            "name": "dense_6",
            "trainable": true,
            "dtype": "float32",
            "units": 38,
            "activation": "softmax",
            "use_bias": true,
            "kernel_initializer": {
               "class_name": "GlorotUniform",
               "config": {
                  "seed": null
               }
            },
            "bias_initializer": {
               "class_name": "Zeros",
               "config": {}
            },
            "kernel_regularizer": null,
            "bias_regularizer": null,
            "activity_regularizer": null,
            "kernel_constraint": null,
            "bias_constraint": null
         }
      }
   ],
   "opt": {
      "name": "Adam",
      "learning_rate": "0.0002",
      "decay": 0.0,
      "beta_1": "0.9",
      "beta_2": "0.999",
      "epsilon": 5e-06,
      "amsgrad": false,
      "str_float": [
         "learning_rate",
         "beta_1",
         "beta_2"
      ]
   },
   "params": {
      "ep": 30,
      "batch_size": 64,
      "learning_rate": 0.0002,
      "loss": "sparse_categorical_crossentropy",
      "train_time": 2662.6640815734863,
      "history": {
         "loss": [
            … "accuracy": [
            … "val_loss": [
            … "val_accuracy": [
            … 