{
   "name": "base15m",
   "layers": [
      {
         "class_name": "InputLayer",
         "config": {
            "batch_input_shape": [
               null,
               256,
               256,
               3
            ],
            "dtype": "float32",
            "sparse": false,
            "ragged": false,
            "name": "conv2d_20_input"
         }
      },
      {
         "class_name": "Conv2D",
         "config": {
            "name": "conv2d_20",
            "trainable": true,
            "batch_input_shape": [
               null,
               256,
               256,
               3
            ],
            "dtype": "float32",
            "filters": 32,
            "kernel_size": [
               3,
               3
            ],
            "strides": [
               1,
               1
            ],
            "padding": "same",
            "data_format": "channels_last",
            "dilation_rate": [
               1,
               1
            ],
            "groups": 1,
            "activation": "relu",
            "use_bias": true,
            "kernel_initializer": {
               "class_name": "GlorotUniform",
               "config": {
                  "seed": null
               }
            },
            "bias_initializer": {
               "class_name": "Zeros",
               "config": {}
            },
            "kernel_regularizer": null,
            "bias_regularizer": null,
            "activity_regularizer": null,
            "kernel_constraint": null,
            "bias_constraint": null
         }
      },
      {
         "class_name": "MaxPooling2D",
         "config": {
            "name": "max_pooling2d_6",
            "trainable": true,
            "dtype": "float32",
            "pool_size": [
               3,
               3
            ],
            "padding": "valid",
            "strides": [
               3,
               3
            ],
            "data_format": "channels_last"
         }
      },
      {
         "class_name": "Conv2D",
         "config": {
            "name": "conv2d_21",
            "trainable": true,
            "dtype": "float32",
            "filters": 64,
            "kernel_size": [
               3,
               3
            ],
            "strides": [
               1,
               1
            ],
            "padding": "same",
            "data_format": "channels_last",
            "dilation_rate": [
               1,
               1
            ],
            "groups": 1,
            "activation": "relu",
            "use_bias": true,
            "kernel_initializer": {
               "class_name": "GlorotUniform",
               "config": {
                  "seed": null
               }
            },
            "bias_initializer": {
               "class_name": "Zeros",
               "config": {}
            },
            "kernel_regularizer": null,
            "bias_regularizer": null,
            "activity_regularizer": null,
            "kernel_constraint": null,
            "bias_constraint": null
         }
      },
      {
         "class_name": "MaxPooling2D",
         "config": {
            "name": "max_pooling2d_7",
            "trainable": true,
            "dtype": "float32",
            "pool_size": [
               3,
               3
            ],
            "padding": "valid",
            "strides": [
               3,
               3
            ],
            "data_format": "channels_last"
         }
      },
      {
         "class_name": "Conv2D",
         "config": {
            "name": "conv2d_22",
            "trainable": true,
            "dtype": "float32",
            "filters": 128,
            "kernel_size": [
               3,
               3
            ],
            "strides": [
               1,
               1
            ],
            "padding": "same",
            "data_format": "channels_last",
            "dilation_rate": [
               1,
               1
            ],
            "groups": 1,
            "activation": "relu",
            "use_bias": true,
            "kernel_initializer": {
               "class_name": "GlorotUniform",
               "config": {
                  "seed": null
               }
            },
            "bias_initializer": {
               "class_name": "Zeros",
               "config": {}
            },
            "kernel_regularizer": null,
            "bias_regularizer": null,
            "activity_regularizer": null,
            "kernel_constraint": null,
            "bias_constraint": null
         }
      },
      {
         "class_name": "MaxPooling2D",
         "config": {
            "name": "max_pooling2d_8",
            "trainable": true,
            "dtype": "float32",
            "pool_size": [
               3,
               3
            ],
            "padding": "valid",
            "strides": [
               3,
               3
            ],
            "data_format": "channels_last"
         }
      },
      {
         "class_name": "Conv2D",
         "config": {
            "name": "conv2d_23",
            "trainable": true,
            "dtype": "float32",
            "filters": 256,
            "kernel_size": [
               3,
               3
            ],
            "strides": [
               1,
               1
            ],
            "padding": "same",
            "data_format": "channels_last",
            "dilation_rate": [
               1,
               1
            ],
            "groups": 1,
            "activation": "relu",
            "use_bias": true,
            "kernel_initializer": {
               "class_name": "GlorotUniform",
               "config": {
                  "seed": null
               }
            },
            "bias_initializer": {
               "class_name": "Zeros",
               "config": {}
            },
            "kernel_regularizer": null,
            "bias_regularizer": null,
            "activity_regularizer": null,
            "kernel_constraint": null,
            "bias_constraint": null
         }
      },
      {
         "class_name": "MaxPooling2D",
         "config": {
            "name": "max_pooling2d_9",
            "trainable": true,
            "dtype": "float32",
            "pool_size": [
               3,
               3
            ],
            "padding": "valid",
            "strides": [
               3,
               3
            ],
            "data_format": "channels_last"
         }
      },
      {
         "class_name": "Conv2D",
         "config": {
            "name": "conv2d_24",
            "trainable": true,
            "dtype": "float32",
            "filters": 512,
            "kernel_size": [
               3,
               3
            ],
            "strides": [
               1,
               1
            ],
            "padding": "same",
            "data_format": "channels_last",
            "dilation_rate": [
               1,
               1
            ],
            "groups": 1,
            "activation": "relu",
            "use_bias": true,
            "kernel_initializer": {
               "class_name": "GlorotUniform",
               "config": {
                  "seed": null
               }
            },
            "bias_initializer": {
               "class_name": "Zeros",
               "config": {}
            },
            "kernel_regularizer": null,
            "bias_regularizer": null,
            "activity_regularizer": null,
            "kernel_constraint": null,
            "bias_constraint": null
         }
      },
      {
         "class_name": "Flatten",
         "config": {
            "name": "flatten_2",
            "trainable": true,
            "dtype": "float32",
            "data_format": "channels_last"
         }
      },
      {
         "class_name": "Dense",
         "config": {
            "name": "dense_4",
            "trainable": true,
            "dtype": "float32",
            "units": 2304,
            "activation": "relu",
            "use_bias": true,
            "kernel_initializer": {
               "class_name": "GlorotUniform",
               "config": {
                  "seed": null
               }
            },
            "bias_initializer": {
               "class_name": "Zeros",
               "config": {}
            },
            "kernel_regularizer": null,
            "bias_regularizer": null,
            "activity_regularizer": null,
            "kernel_constraint": null,
            "bias_constraint": null
         }
      },
      {
         "class_name": "Dropout",
         "config": {
            "name": "dropout_2",
            "trainable": true,
            "dtype": "float32",
            "rate": 0.5,
            "noise_shape": null,
            "seed": null
         }
      },
      {
         "class_name": "Dense",
         "config": {
            "name": "dense_5",
            "trainable": true,
            "dtype": "float32",
            "units": 1152,
            "activation": "relu",
            "use_bias": true,
            "kernel_initializer": {
               "class_name": "GlorotUniform",
               "config": {
                  "seed": null
               }
            },
            "bias_initializer": {
               "class_name": "Zeros",
               "config": {}
            },
            "kernel_regularizer": null,
            "bias_regularizer": null,
            "activity_regularizer": null,
            "kernel_constraint": null,
            "bias_constraint": null
         }
      },
      {
         "class_name": "Dropout",
         "config": {
            "name": "dropout_3",
            "trainable": true,
            "dtype": "float32",
            "rate": 0.5,
            "noise_shape": null,
            "seed": null
         }
      },
      {
         "class_name": "Dense",
         "config": {
            "name": "dense_6",
            "trainable": true,
            "dtype": "float32",
            "units": 38,
            "activation": "softmax",
            "use_bias": true,
            "kernel_initializer": {
               "class_name": "GlorotUniform",
               "config": {
                  "seed": null
               }
            },
            "bias_initializer": {
               "class_name": "Zeros",
               "config": {}
            },
            "kernel_regularizer": null,
            "bias_regularizer": null,
            "activity_regularizer": null,
            "kernel_constraint": null,
            "bias_constraint": null
         }
      }
   ],
   "opt": {
      "name": "SGD",
      "learning_rate": "0.125",
      "decay": 0.0,
      "momentum": "0.15",
      "nesterov": false,
      "str_float": [
         "learning_rate",
         "momentum"
      ]
   },
   "params": {
      "ep": 30,
      "batch_size": 128,
      "learning_rate": 0.125,
      "loss": "sparse_categorical_crossentropy",
      "train_time": 2302.349901676178,
      "history": {
         "loss": [
            3.6244924068450928,
            3.4033937454223633,
            2.4963483810424805,
            1.6184076070785522,
            1.0424931049346924,
            0.6097509860992432,
            0.3865179121494293,
            0.26928943395614624,
            0.18767961859703064,
            0.14095036685466766,
            0.09314059466123581,
            0.06862488389015198,
            0.06232661381363869,
            0.046582598239183426,
            NaN,
            NaN,
            NaN,
            NaN,
            NaN,
            NaN,
            NaN,
            NaN,
            NaN,
            NaN,
            NaN,
            NaN,
            NaN,
            NaN,
            NaN,
            NaN
         ],
         "accuracy": [
            … "val_loss": [
            3.637172222137451,
            2.9034018516540527,
            2.015133857727051,
            2.0142548084259033,
            0.9312303066253662,
            0.4112209975719452,
            0.4190577268600464,
            0.2572357654571533,
            0.18947100639343262,
            0.17059656977653503,
            0.19577129185199738,
            0.1729140728712082,
            0.1687474399805069,
            0.16163356602191925,
            NaN,
            NaN,
            NaN,
            NaN,
            NaN,
            NaN,
            NaN,
            NaN,
            NaN,
            NaN,
            NaN,
            NaN,
            NaN,
            NaN,
            NaN,
            NaN
         ],
         "val_accuracy": [
            … 