{
   "name": "base15m",
   "layers": [
      {
         "class_name": "InputLayer",
         "config": {
            "batch_input_shape": [
               null,
               256,
               256,
               3
            ],
            "dtype": "float32",
            "sparse": false,
            "ragged": false,
            "name": "conv2d_20_input"
         }
      },
      {
         "class_name": "Conv2D",
         "config": {
            "name": "conv2d_20",
            "trainable": true,
            "batch_input_shape": [
               null,
               256,
               256,
               3
            ],
            "dtype": "float32",
            "filters": 32,
            "kernel_size": [
               3,
               3
            ],
            "strides": [
               1,
               1
            ],
            "padding": "same",
            "data_format": "channels_last",
            "dilation_rate": [
               1,
               1
            ],
            "groups": 1,
            "activation": "relu",
            "use_bias": true,
            "kernel_initializer": {
               "class_name": "GlorotUniform",
               "config": {
                  "seed": null
               }
            },
            "bias_initializer": {
               "class_name": "Zeros",
               "config": {}
            },
            "kernel_regularizer": null,
            "bias_regularizer": null,
            "activity_regularizer": null,
            "kernel_constraint": null,
            "bias_constraint": null
         }
      },
      {
         "class_name": "MaxPooling2D",
         "config": {
            "name": "max_pooling2d_6",
            "trainable": true,
            "dtype": "float32",
            "pool_size": [
               3,
               3
            ],
            "padding": "valid",
            "strides": [
               3,
               3
            ],
            "data_format": "channels_last"
         }
      },
      {
         "class_name": "Conv2D",
         "config": {
            "name": "conv2d_21",
            "trainable": true,
            "dtype": "float32",
            "filters": 64,
            "kernel_size": [
               3,
               3
            ],
            "strides": [
               1,
               1
            ],
            "padding": "same",
            "data_format": "channels_last",
            "dilation_rate": [
               1,
               1
            ],
            "groups": 1,
            "activation": "relu",
            "use_bias": true,
            "kernel_initializer": {
               "class_name": "GlorotUniform",
               "config": {
                  "seed": null
               }
            },
            "bias_initializer": {
               "class_name": "Zeros",
               "config": {}
            },
            "kernel_regularizer": null,
            "bias_regularizer": null,
            "activity_regularizer": null,
            "kernel_constraint": null,
            "bias_constraint": null
         }
      },
      {
         "class_name": "MaxPooling2D",
         "config": {
            "name": "max_pooling2d_7",
            "trainable": true,
            "dtype": "float32",
            "pool_size": [
               3,
               3
            ],
            "padding": "valid",
            "strides": [
               3,
               3
            ],
            "data_format": "channels_last"
         }
      },
      {
         "class_name": "Conv2D",
         "config": {
            "name": "conv2d_22",
            "trainable": true,
            "dtype": "float32",
            "filters": 128,
            "kernel_size": [
               3,
               3
            ],
            "strides": [
               1,
               1
            ],
            "padding": "same",
            "data_format": "channels_last",
            "dilation_rate": [
               1,
               1
            ],
            "groups": 1,
            "activation": "relu",
            "use_bias": true,
            "kernel_initializer": {
               "class_name": "GlorotUniform",
               "config": {
                  "seed": null
               }
            },
            "bias_initializer": {
               "class_name": "Zeros",
               "config": {}
            },
            "kernel_regularizer": null,
            "bias_regularizer": null,
            "activity_regularizer": null,
            "kernel_constraint": null,
            "bias_constraint": null
         }
      },
      {
         "class_name": "MaxPooling2D",
         "config": {
            "name": "max_pooling2d_8",
            "trainable": true,
            "dtype": "float32",
            "pool_size": [
               3,
               3
            ],
            "padding": "valid",
            "strides": [
               3,
               3
            ],
            "data_format": "channels_last"
         }
      },
      {
         "class_name": "Conv2D",
         "config": {
            "name": "conv2d_23",
            "trainable": true,
            "dtype": "float32",
            "filters": 256,
            "kernel_size": [
               3,
               3
            ],
            "strides": [
               1,
               1
            ],
            "padding": "same",
            "data_format": "channels_last",
            "dilation_rate": [
               1,
               1
            ],
            "groups": 1,
            "activation": "relu",
            "use_bias": true,
            "kernel_initializer": {
               "class_name": "GlorotUniform",
               "config": {
                  "seed": null
               }
            },
            "bias_initializer": {
               "class_name": "Zeros",
               "config": {}
            },
            "kernel_regularizer": null,
            "bias_regularizer": null,
            "activity_regularizer": null,
            "kernel_constraint": null,
            "bias_constraint": null
         }
      },
      {
         "class_name": "MaxPooling2D",
         "config": {
            "name": "max_pooling2d_9",
            "trainable": true,
            "dtype": "float32",
            "pool_size": [
               3,
               3
            ],
            "padding": "valid",
            "strides": [
               3,
               3
            ],
            "data_format": "channels_last"
         }
      },
      {
         "class_name": "Conv2D",
         "config": {
            "name": "conv2d_24",
            "trainable": true,
            "dtype": "float32",
            "filters": 512,
            "kernel_size": [
               3,
               3
            ],
            "strides": [
               1,
               1
            ],
            "padding": "same",
            "data_format": "channels_last",
            "dilation_rate": [
               1,
               1
            ],
            "groups": 1,
            "activation": "relu",
            "use_bias": true,
            "kernel_initializer": {
               "class_name": "GlorotUniform",
               "config": {
                  "seed": null
               }
            },
            "bias_initializer": {
               "class_name": "Zeros",
               "config": {}
            },
            "kernel_regularizer": null,
            "bias_regularizer": null,
            "activity_regularizer": null,
            "kernel_constraint": null,
            "bias_constraint": null
         }
      },
      {
         "class_name": "Flatten",
         "config": {
            "name": "flatten_2",
            "trainable": true,
            "dtype": "float32",
            "data_format": "channels_last"
         }
      },
      {
         "class_name": "Dense",
         "config": {
            "name": "dense_4",
            "trainable": true,
            "dtype": "float32",
            "units": 2304,
            "activation": "relu",
            "use_bias": true,
            "kernel_initializer": {
               "class_name": "GlorotUniform",
               "config": {
                  "seed": null
               }
            },
            "bias_initializer": {
               "class_name": "Zeros",
               "config": {}
            },
            "kernel_regularizer": null,
            "bias_regularizer": null,
            "activity_regularizer": null,
            "kernel_constraint": null,
            "bias_constraint": null
         }
      },
      {
         "class_name": "Dropout",
         "config": {
            "name": "dropout_2",
            "trainable": true,
            "dtype": "float32",
            "rate": 0.5,
            "noise_shape": null,
            "seed": null
         }
      },
      {
         "class_name": "Dense",
         "config": {
            "name": "dense_5",
            "trainable": true,
            "dtype": "float32",
            "units": 1152,
            "activation": "relu",
            "use_bias": true,
            "kernel_initializer": {
               "class_name": "GlorotUniform",
               "config": {
                  "seed": null
               }
            },
            "bias_initializer": {
               "class_name": "Zeros",
               "config": {}
            },
            "kernel_regularizer": null,
            "bias_regularizer": null,
            "activity_regularizer": null,
            "kernel_constraint": null,
            "bias_constraint": null
         }
      },
      {
         "class_name": "Dropout",
         "config": {
            "name": "dropout_3",
            "trainable": true,
            "dtype": "float32",
            "rate": 0.5,
            "noise_shape": null,
            "seed": null
         }
      },
      {
         "class_name": "Dense",
         "config": {
            "name": "dense_6",
            "trainable": true,
            "dtype": "float32",
            "units": 38,
            "activation": "softmax",
            "use_bias": true,
            "kernel_initializer": {
               "class_name": "GlorotUniform",
               "config": {
                  "seed": null
               }
            },
            "bias_initializer": {
               "class_name": "Zeros",
               "config": {}
            },
            "kernel_regularizer": null,
            "bias_regularizer": null,
            "activity_regularizer": null,
            "kernel_constraint": null,
            "bias_constraint": null
         }
      }
   ],
   "opt": {
      "name": "SGD",
      "learning_rate": "0.125",
      "decay": 0.0,
      "momentum": "0.1",
      "nesterov": false,
      "str_float": [
         "learning_rate",
         "momentum"
      ]
   },
   "params": {
      "ep": 30,
      "batch_size": 32,
      "learning_rate": 0.125,
      "loss": "sparse_categorical_crossentropy",
      "train_time": 2573.2042758464813,
      "history": {
         "loss": [
            2.9654574394226074,
            1.317554235458374,
            0.7371639013290405,
            0.44913047552108765,
            0.3229728937149048,
            0.27008190751075745,
            0.20371468365192413,
            0.19444435834884644,
            0.17481517791748047,
            0.2088988870382309,
            0.17652441561222076,
            0.16652558743953705,
            0.17060327529907227,
            0.16764530539512634,
            NaN,
            NaN,
            NaN,
            NaN,
            NaN,
            NaN,
            NaN,
            NaN,
            NaN,
            NaN,
            NaN,
            NaN,
            NaN,
            NaN,
            NaN,
            NaN
         ],
         "accuracy": [
            … "val_loss": [
            1.9605293273925781,
            0.9561858177185059,
            0.44224685430526733,
            0.35501572489738464,
            0.2879965901374817,
            0.3009204566478729,
            0.22358474135398865,
            0.2464846968650818,
            0.4407954812049866,
            0.21521034836769104,
            0.22018815577030182,
            0.24944713711738586,
            0.2547586262226105,
            0.27591797709465027,
            NaN,
            NaN,
            NaN,
            NaN,
            NaN,
            NaN,
            NaN,
            NaN,
            NaN,
            NaN,
            NaN,
            NaN,
            NaN,
            NaN,
            NaN,
            NaN
         ],
         "val_accuracy": [
            … 