{
   "name": "base15m",
   "layers": [
      {
         "class_name": "InputLayer",
         "config": {
            "batch_input_shape": [
               null,
               256,
               256,
               3
            ],
            "dtype": "float32",
            "sparse": false,
            "ragged": false,
            "name": "conv2d_20_input"
         }
      },
      {
         "class_name": "Conv2D",
         "config": {
            "name": "conv2d_20",
            "trainable": true,
            "batch_input_shape": [
               null,
               256,
               256,
               3
            ],
            "dtype": "float32",
            "filters": 32,
            "kernel_size": [
               3,
               3
            ],
            "strides": [
               1,
               1
            ],
            "padding": "same",
            "data_format": "channels_last",
            "dilation_rate": [
               1,
               1
            ],
            "groups": 1,
            "activation": "relu",
            "use_bias": true,
            "kernel_initializer": {
               "class_name": "GlorotUniform",
               "config": {
                  "seed": null
               }
            },
            "bias_initializer": {
               "class_name": "Zeros",
               "config": {}
            },
            "kernel_regularizer": null,
            "bias_regularizer": null,
            "activity_regularizer": null,
            "kernel_constraint": null,
            "bias_constraint": null
         }
      },
      {
         "class_name": "MaxPooling2D",
         "config": {
            "name": "max_pooling2d_6",
            "trainable": true,
            "dtype": "float32",
            "pool_size": [
               3,
               3
            ],
            "padding": "valid",
            "strides": [
               3,
               3
            ],
            "data_format": "channels_last"
         }
      },
      {
         "class_name": "Conv2D",
         "config": {
            "name": "conv2d_21",
            "trainable": true,
            "dtype": "float32",
            "filters": 64,
            "kernel_size": [
               3,
               3
            ],
            "strides": [
               1,
               1
            ],
            "padding": "same",
            "data_format": "channels_last",
            "dilation_rate": [
               1,
               1
            ],
            "groups": 1,
            "activation": "relu",
            "use_bias": true,
            "kernel_initializer": {
               "class_name": "GlorotUniform",
               "config": {
                  "seed": null
               }
            },
            "bias_initializer": {
               "class_name": "Zeros",
               "config": {}
            },
            "kernel_regularizer": null,
            "bias_regularizer": null,
            "activity_regularizer": null,
            "kernel_constraint": null,
            "bias_constraint": null
         }
      },
      {
         "class_name": "MaxPooling2D",
         "config": {
            "name": "max_pooling2d_7",
            "trainable": true,
            "dtype": "float32",
            "pool_size": [
               3,
               3
            ],
            "padding": "valid",
            "strides": [
               3,
               3
            ],
            "data_format": "channels_last"
         }
      },
      {
         "class_name": "Conv2D",
         "config": {
            "name": "conv2d_22",
            "trainable": true,
            "dtype": "float32",
            "filters": 128,
            "kernel_size": [
               3,
               3
            ],
            "strides": [
               1,
               1
            ],
            "padding": "same",
            "data_format": "channels_last",
            "dilation_rate": [
               1,
               1
            ],
            "groups": 1,
            "activation": "relu",
            "use_bias": true,
            "kernel_initializer": {
               "class_name": "GlorotUniform",
               "config": {
                  "seed": null
               }
            },
            "bias_initializer": {
               "class_name": "Zeros",
               "config": {}
            },
            "kernel_regularizer": null,
            "bias_regularizer": null,
            "activity_regularizer": null,
            "kernel_constraint": null,
            "bias_constraint": null
         }
      },
      {
         "class_name": "MaxPooling2D",
         "config": {
            "name": "max_pooling2d_8",
            "trainable": true,
            "dtype": "float32",
            "pool_size": [
               3,
               3
            ],
            "padding": "valid",
            "strides": [
               3,
               3
            ],
            "data_format": "channels_last"
         }
      },
      {
         "class_name": "Conv2D",
         "config": {
            "name": "conv2d_23",
            "trainable": true,
            "dtype": "float32",
            "filters": 256,
            "kernel_size": [
               3,
               3
            ],
            "strides": [
               1,
               1
            ],
            "padding": "same",
            "data_format": "channels_last",
            "dilation_rate": [
               1,
               1
            ],
            "groups": 1,
            "activation": "relu",
            "use_bias": true,
            "kernel_initializer": {
               "class_name": "GlorotUniform",
               "config": {
                  "seed": null
               }
            },
            "bias_initializer": {
               "class_name": "Zeros",
               "config": {}
            },
            "kernel_regularizer": null,
            "bias_regularizer": null,
            "activity_regularizer": null,
            "kernel_constraint": null,
            "bias_constraint": null
         }
      },
      {
         "class_name": "MaxPooling2D",
         "config": {
            "name": "max_pooling2d_9",
            "trainable": true,
            "dtype": "float32",
            "pool_size": [
               3,
               3
            ],
            "padding": "valid",
            "strides": [
               3,
               3
            ],
            "data_format": "channels_last"
         }
      },
      {
         "class_name": "Conv2D",
         "config": {
            "name": "conv2d_24",
            "trainable": true,
            "dtype": "float32",
            "filters": 512,
            "kernel_size": [
               3,
               3
            ],
            "strides": [
               1,
               1
            ],
            "padding": "same",
            "data_format": "channels_last",
            "dilation_rate": [
               1,
               1
            ],
            "groups": 1,
            "activation": "relu",
            "use_bias": true,
            "kernel_initializer": {
               "class_name": "GlorotUniform",
               "config": {
                  "seed": null
               }
            },
            "bias_initializer": {
               "class_name": "Zeros",
               "config": {}
            },
            "kernel_regularizer": null,
            "bias_regularizer": null,
            "activity_regularizer": null,
            "kernel_constraint": null,
            "bias_constraint": null
         }
      },
      {
         "class_name": "Flatten",
         "config": {
            "name": "flatten_2",
            "trainable": true,
            "dtype": "float32",
            "data_format": "channels_last"
         }
      },
      {
         "class_name": "Dense",
         "config": {
            "name": "dense_4",
            "trainable": true,
            "dtype": "float32",
            "units": 2304,
            "activation": "relu",
            "use_bias": true,
            "kernel_initializer": {
               "class_name": "GlorotUniform",
               "config": {
                  "seed": null
               }
            },
            "bias_initializer": {
               "class_name": "Zeros",
               "config": {}
            },
            "kernel_regularizer": null,
            "bias_regularizer": null,
            "activity_regularizer": null,
            "kernel_constraint": null,
            "bias_constraint": null
         }
      },
      {
         "class_name": "Dropout",
         "config": {
            "name": "dropout_2",
            "trainable": true,
            "dtype": "float32",
            "rate": 0.5,
            "noise_shape": null,
            "seed": null
         }
      },
      {
         "class_name": "Dense",
         "config": {
            "name": "dense_5",
            "trainable": true,
            "dtype": "float32",
            "units": 1152,
            "activation": "relu",
            "use_bias": true,
            "kernel_initializer": {
               "class_name": "GlorotUniform",
               "config": {
                  "seed": null
               }
            },
            "bias_initializer": {
               "class_name": "Zeros",
               "config": {}
            },
            "kernel_regularizer": null,
            "bias_regularizer": null,
            "activity_regularizer": null,
            "kernel_constraint": null,
            "bias_constraint": null
         }
      },
      {
         "class_name": "Dropout",
         "config": {
            "name": "dropout_3",
            "trainable": true,
            "dtype": "float32",
            "rate": 0.5,
            "noise_shape": null,
            "seed": null
         }
      },
      {
         "class_name": "Dense",
         "config": {
            "name": "dense_6",
            "trainable": true,
            "dtype": "float32",
            "units": 38,
            "activation": "softmax",
            "use_bias": true,
            "kernel_initializer": {
               "class_name": "GlorotUniform",
               "config": {
                  "seed": null
               }
            },
            "bias_initializer": {
               "class_name": "Zeros",
               "config": {}
            },
            "kernel_regularizer": null,
            "bias_regularizer": null,
            "activity_regularizer": null,
            "kernel_constraint": null,
            "bias_constraint": null
         }
      }
   ],
   "opt": {
      "name": "Adam",
      "learning_rate": "1e-04",
      "decay": 0.0,
      "beta_1": "0.9",
      "beta_2": "0.999",
      "epsilon": 1e-07,
      "amsgrad": false,
      "str_float": [
         "learning_rate",
         "beta_1",
         "beta_2"
      ]
   },
   "params": {
      "ep": 15,
      "batch_size": 32,
      "learning_rate": 0.0001,
      "loss": "sparse_categorical_crossentropy",
      "train_time": 1336.366200208664,
      "history": {
         "loss": [
            2.1744163036346436,
            0.8400902152061462,
            0.5030285120010376,
            0.34395936131477356,
            0.2522204518318176,
            0.18815062940120697,
            0.1486223042011261,
            0.1190507635474205,
            0.10060188174247742,
            0.08228787034749985,
            0.06727174669504166,
            0.05838284268975258,
            0.05299074202775955,
            0.047410741448402405,
            0.04026142135262489
         ],
         "accuracy": [
            0.37004172801971436,
            0.7347981333732605,
            0.8371102213859558,
            0.8886021375656128,
            0.9173973202705383,
            0.9370890259742737,
            0.9500636458396912,
            0.9587428569793701,
            0.9656897187232971,
            0.9715937376022339,
            0.9776921272277832,
            0.9798133373260498,
            0.9820759296417236,
            0.9838789701461792,
            0.9862653017044067
         ],
         "val_loss": [
            0.9408678412437439,
            0.5512023568153381,
            0.34907397627830505,
            0.2535562813282013,
            0.2131935954093933,
            0.1707076132297516,
            0.14862951636314392,
            0.17161625623703003,
            0.13581985235214233,
            0.1753082424402237,
            0.14722563326358795,
            0.11396558582782745,
            0.13912716507911682,
            0.10842341184616089,
            0.11661192774772644
         ],
         "val_accuracy": [
            0.7114158868789673,
            0.823298454284668,
            0.8853858113288879,
            0.9174823760986328,
            0.9309697151184082,
            0.9446847438812256,
            0.9519121050834656,
            0.9457659721374512,
            0.9558388590812683,
            0.9447985291481018,
            0.9554973840713501,
            0.9648873209953308,
            0.9587411880493164,
            0.9676189422607422,
            0.9662531018257141
         ]
      }
   }
}